…
/home/hazemahmed/anaconda3/envs/torch_env/lib/python3.7/site-packages/albumentations/augmentations/transforms.py:1828: FutureWarning: This class has been deprecated. Please use RandomBrightnessContrast
  FutureWarning,
[34m[1mwandb[39m[22m: logging graph, to disable use `wandb.watch(log_graph=False)`
  0%|                                                                                         | 0/68 [00:00<?, ?it/s]
==========================================================================================
Layer (type:depth-idx)                   Output Shape              Param #
==========================================================================================
├─ResNet: 1-1                            [-1, 20]                  --
|    └─Conv2d: 2-1                       [-1, 64, 256, 256]        9,408
|    └─BatchNorm2d: 2-2                  [-1, 64, 256, 256]        128
|    └─ReLU: 2-3                         [-1, 64, 256, 256]        --
|    └─MaxPool2d: 2-4                    [-1, 64, 128, 128]        --
|    └─Sequential: 2-5                   [-1, 64, 128, 128]        --
|    |    └─BasicBlock: 3-1              [-1, 64, 128, 128]        73,984
|    |    └─BasicBlock: 3-2              [-1, 64, 128, 128]        73,984
|    └─Sequential: 2-6                   [-1, 128, 64, 64]         --
|    |    └─BasicBlock: 3-3              [-1, 128, 64, 64]         230,144
|    |    └─BasicBlock: 3-4              [-1, 128, 64, 64]         295,424
|    └─Sequential: 2-7                   [-1, 256, 32, 32]         --
|    |    └─BasicBlock: 3-5              [-1, 256, 32, 32]         919,040
|    |    └─BasicBlock: 3-6              [-1, 256, 32, 32]         1,180,672
|    └─Sequential: 2-8                   [-1, 512, 16, 16]         --
|    |    └─BasicBlock: 3-7              [-1, 512, 16, 16]         3,673,088
|    |    └─BasicBlock: 3-8              [-1, 512, 16, 16]         4,720,640
|    └─AdaptiveAvgPool2d: 2-9            [-1, 512, 1, 1]           --
|    └─Sequential: 2-10                  [-1, 20]                  --
|    |    └─Linear: 3-9                  [-1, 512]                 262,656
|    |    └─Linear: 3-10                 [-1, 512]                 262,656
|    |    └─Linear: 3-11                 [-1, 20]                  10,260
==========================================================================================
Total params: 11,712,084
Trainable params: 11,712,084
Non-trainable params: 0
Total mult-adds (G): 9.41
==========================================================================================
Input size (MB): 3.00
Forward/backward pass size (MB): 184.01
Params size (MB): 44.68
Estimated Total Size (MB): 231.69
==========================================================================================
==========================================================================================
Layer (type:depth-idx)                   Output Shape              Param #
==========================================================================================
├─ResNet: 1-1                            [-1, 20]                  --
|    └─Conv2d: 2-1                       [-1, 64, 256, 256]        9,408
|    └─BatchNorm2d: 2-2                  [-1, 64, 256, 256]        128
|    └─ReLU: 2-3                         [-1, 64, 256, 256]        --
|    └─MaxPool2d: 2-4                    [-1, 64, 128, 128]        --
|    └─Sequential: 2-5                   [-1, 64, 128, 128]        --
|    |    └─BasicBlock: 3-1              [-1, 64, 128, 128]        73,984
|    |    └─BasicBlock: 3-2              [-1, 64, 128, 128]        73,984
|    └─Sequential: 2-6                   [-1, 128, 64, 64]         --
|    |    └─BasicBlock: 3-3              [-1, 128, 64, 64]         230,144
|    |    └─BasicBlock: 3-4              [-1, 128, 64, 64]         295,424
|    └─Sequential: 2-7                   [-1, 256, 32, 32]         --
|    |    └─BasicBlock: 3-5              [-1, 256, 32, 32]         919,040
|    |    └─BasicBlock: 3-6              [-1, 256, 32, 32]         1,180,672
|    └─Sequential: 2-8                   [-1, 512, 16, 16]         --
|    |    └─BasicBlock: 3-7              [-1, 512, 16, 16]         3,673,088
|    |    └─BasicBlock: 3-8              [-1, 512, 16, 16]         4,720,640
|    └─AdaptiveAvgPool2d: 2-9            [-1, 512, 1, 1]           --
|    └─Sequential: 2-10                  [-1, 20]                  --
|    |    └─Linear: 3-9                  [-1, 512]                 262,656
|    |    └─Linear: 3-10                 [-1, 512]                 262,656
|    |    └─Linear: 3-11                 [-1, 20]                  10,260
==========================================================================================
Total params: 11,712,084
Trainable params: 11,712,084
Non-trainable params: 0
Total mult-adds (G): 9.41
==========================================================================================
Input size (MB): 3.00
Forward/backward pass size (MB): 184.01
Params size (MB): 44.68
Estimated Total Size (MB): 231.69
…
